Deep Learning/Experiment/week 04/16340041_陈亚楠_week4/model.pt (torch_old, 407024 bytes, 20 tensors)

hidden1.weight f4 [100, 784]
000000 24 ca 63 3c d0 36 d9 3b 90 aa 0a 3c d0 d9 71 3c
       0.013903175 0.0066288486 0.008463517 0.014761403
000010 9e 1f b6 bc 5c b1 0c 3c d4 b6 0d bd 80 5e 18 bb
       -0.022231873 0.008587208 -0.034598187 -0.0023249686
000020 d6 b4 0f bd c7 15 8f bc 78 83 20 bc 00 dc 47 3a
       -0.035084568 -0.017466439 -0.00979697 0.000762403
000030 4c a9 87 3c 0f da 10 3d f0 85 b7 bb d0 e6 1f bb
       0.01656022 0.035364207 -0.0056006834 -0.002439905
000040 3c 7b 81 bc b3 56 e8 bc aa ec 0f bc c4 44 6a 3c
       -0.015805833 -0.028361654 -0.008784452 0.014298622
000050 62 46 e0 3c 27 b0 86 bc 9a ad db 3c 78 27 29 3c
       0.027377311 -0.016441418 0.026816178 0.0103243515
000060 60 9d ff 3b 4a c5 05 bd 69 94 10 3d 4a f9 95 bc
       0.007800743 -0.032658853 0.035297785 -0.018307347
000070 1e 39 e5 3c a0 5b f1 ba bf 0b 0d bd a4 50 47 3c
       0.027981337 -0.0018414147 -0.03443503 0.012165222
000080 0e 73 a4 3c 20 4f 1e bb cc df b2 3c 9a f3 c8 3c
       0.020074394 -0.002415605 0.02183523 0.02453022
000090 b8 d3 9d 3b 95 57 c0 bc 9e e4 e8 3c e8 63 d6 bc
       0.0048164986 -0.023479262 0.028429326 -0.026170686
0000a0 58 59 2d 3c c8 3f 48 3c b0 a9 cb bc ee 2c 2a bc
       0.010580383 0.012222238 -0.024861187 -0.010386689
0000b0 19 fb 00 3d 3a a9 d7 3c 90 b6 f3 3b 48 c6 d4 3b
       0.031489465 0.02632581 0.0074375346 0.0064933635
0000c0 58 49 42 bc 4c fa ab 3c 40 74 82 3b 3e 19 fd 3c
       -0.011858307 0.020993374 0.0039811432 0.030895825
0000d0 de ae bc 3c 60 11 b8 3c a0 aa 29 bb f0 a5 cd bb
       0.023032602 0.022469223 -0.0025889054 -0.006275885
0000e0 2a 24 0a bc 03 21 d0 bc 60 ae b9 3a c2 d8 92 3c
       -0.008431474 -0.025406366 0.0014166348 0.017925624
0000f0 5e c7 9a 3c 20 75 81 bc 48 21 dd bc bc 27 05 3c
       0.018893894 -0.01580292 -0.026993409 0.008127149
000100 fe e7 f2 3c 58 0c 56 bc 15 ff 9a bc 4e be 8d bc
       0.029651638 -0.013064466 -0.01892046 -0.017302658
000110 ae cb 1e bc 74 e1 43 3c 2e 08 dd 3c ff 06 10 3d
       -0.009692116 0.011955608 0.02698144 0.035162922
000120 d3 7d c8 bc 5d a8 02 bd 8e 44 9a 3c 58 8a 7d 3c
       -0.02447406 -0.031898845 0.018831518 0.015474878
000130 f2 b7 8a 3c 4a b5 f0 3c 78 0b b0 bb 00 05 18 3c
       0.016933415 0.02938332 -0.005372461 0.009278536
000140 5e c5 d1 3c 08 03 ef bb 10 58 1a 3c 95 7f e8 bc
       0.025606807 -0.0072940625 0.00942041 -0.028381148
000150 1d 8a 10 3d e0 e9 06 bc a2 7b 9b 3c 90 2b 27 3b
       0.035287965 -0.008234471 0.018979851 0.0025508143
000160 58 67 6c 3c aa c8 9e bc 40 43 d4 bc be 74 e5 3c
       0.014428936 -0.019382793 -0.025910974 0.028009769
000170 d8 fb 82 bb 8a 9b ff 3c de e7 df 3c 51 d8 fc bc
       -0.0039973073 0.031202096 0.027332243 -0.030864866
000180 70 db 0a 3c 68 40 ef 3b a0 68 78 bb 40 b1 8e 3b
       0.00847517 0.007301379 -0.0037904158 0.004354626
000190 1b 79 04 3d a3 4f c2 bc e0 ae c0 ba 5f 61 09 bd
       0.032342058 -0.023719614 -0.0014700554 -0.033540126
0001a0 28 6b 3d 3c a5 1f c6 bc cc 55 ad 3c 85 71 ed bc
       0.011561193 -0.024185011 0.021159075 -0.028984794
0001b0 b2 9c 51 bc fc 3f 82 bc 98 0b eb bc 30 b3 3e 3b
       -0.012793707 -0.01589965 -0.028692052 0.0029098503
0001c0 58 1f 52 3c 1e bd ca bc ad bf 0f 3d b8 da 17 3c
       0.012824856 -0.024748381 0.035094906 0.009268455
0001d0 96 55 9e 3c 60 ea 21 bb 20 fa 96 3a be fd 9e 3c
       0.01932792 -0.0024706349 0.0011518635 0.019408103
0001e0 2e 38 fe bc 60 e3 d6 3a a4 3f 4a 3c 79 f3 01 3d
       -0.031032648 0.0016394667 0.012344275 0.031726334
0001f0 22 ea a0 3c 47 f0 10 3d 1c 53 03 bc 1c 42 05 bc
       0.019642893 0.035385396 -0.00801542 -0.0081334375
000200 90 1d 75 3c 7c 5f 1d 3c 45 b4 05 3d 80 c8 a6 bb
       0.0149606615 0.009605285 0.03264262 -0.0050898194
000210 60 58 24 bb e0 b8 ca 3a cc 43 af bc b8 5e c1 bb
       -0.002507709 0.0015466474 -0.021394633 -0.005901184
000220 d6 9e b1 3c f8 b9 05 bd d3 01 f6 bc ce 8b 61 bc
       0.021682184 -0.032648057 -0.030030167 -0.013766242
000230 62 e9 9f 3c cb d0 0c 3d 23 39 0f bd 44 df 24 3c
       0.019520465 0.034378808 -0.0349666 0.010062996
000240 c8 05 9b bb a0 83 d8 3c a0 48 95 3c 68 85 f8 bc
       -0.004730914 0.026429951 0.018223107 -0.03033705
000250 c0 04 3b bc 70 7b 57 bb 8c 14 a8 3c e7 97 0a 3d
       -0.011414707 -0.003287997 0.02051761 0.03383627
000260 7a 12 9b bc e7 79 96 bc f3 a4 98 bc 08 f8 d0 3c
       -0.018929709 -0.018368674 -0.018633341 0.025508896
000270 b1 ee f5 bc 40 80 f4 3a 38 95 3a 3c f3 8d 11 bd
       -0.030021043 0.0018653944 0.011388116 -0.035535764
000280 fe 20 f0 3c 7a 52 d3 3c 8a 58 81 bc df 00 03 3d
       0.029312607 0.025796164 -0.015789289 0.031983253
000290 3c bd 8a bc 79 b9 11 3d ae e0 7e bc 5c e9 11 bc
       -0.016935937 0.03557727 -0.0155564975 -0.008905735
0002a0 ee e7 17 bc 09 f0 03 3d a0 03 13 3b 58 6a 5d bc
       -0.009271605 0.032211337 0.002243258 -0.013514124
0002b0 90 78 00 3c 00 ac d1 3c 45 72 e9 bc c0 e8 13 3c
       0.007841244 0.025594711 -0.02849687 0.00902766
0002c0 60 43 a5 3c 10 61 27 3c 58 df 6e 3c 74 67 59 3c
       0.020173728 0.010216013 0.0145796165 0.013269294
0002d0 f8 ff 31 3c 20 fe af ba 0e 52 34 bc 85 ee d0 bc
       0.01086425 -0.0013427176 -0.0110058915 -0.02550436
0002e0 d2 50 03 bd b2 47 ef 3c 3e 8e fb 3c 80 a6 67 3b
       -0.032059498 0.029208992 0.030707475 0.0035347044
0002f0 33 d9 e9 bc 72 fd 0c bc c8 95 f1 3b 8a 86 c0 3c
       -0.028545951 -0.008605348 0.0073725916 0.023501653
000300 0e 71 ac bc 98 c0 63 bc ec fd ff bc 6c e1 00 bd
       -0.021050002 -0.013900898 -0.03124901 -0.03146498
000310 a0 2d 9b 3a c0 7d 3c bc 55 b1 d3 bc 7e 31 f3 bc
       0.0011839159 -0.0115045905 -0.025841394 -0.029686686
000320 0b a1 0a 3d 20 ae e2 3b 0a a4 2b bc 18 a9 7b 3c
       0.03384499 0.00691773 -0.010476122 0.015360139
000330 b8 74 43 bc 22 1b d2 3c 08 e6 1b 3c 28 33 3a 3c
       -0.011929683 0.025647704 0.009515293 0.011364736
000340 12 81 24 bc 27 2e 08 3d b2 1e fa 3c 8b 35 05 3d
       -0.010040538 0.03324714 0.030532215 0.032521766
000350 13 5c aa bc f8 08 af bb 1a 1e c6 bc 0f fa 09 bd
       -0.020795858 -0.0053416453 -0.024184275 -0.03368574
000360 f8 0a 33 3c 3f 99 07 3d 78 ce 08 3c ec 70 eb bc
       0.010927908 0.03310513 0.008350007 -0.028740369
000370 92 00 9b 3c 06 04 db 3c d6 5c b8 3c a8 d8 4c 3c
       0.01892117 0.026735317 0.022505205 0.012502827
000380 88 a4 cb bb 6e 1b 44 bc fa 37 ce 3c 40 b3 ba 3a
       -0.006214682 -0.01196943 0.025173176 0.0014244094
000390 b0 67 d6 bb d9 66 0d 3d da e1 ae bc 5a e8 b5 3c
       -0.006543122 0.03452191 -0.021347929 0.02220552
0003a0 05 b9 d7 bc 90 1a 61 bb ca 72 72 bc 83 bd aa bc
       -0.026333341 -0.0034348108 -0.014797876 -0.02084232
0003b0 6f f8 0e 3d cc 41 80 3c 9a 26 cf bc 4a 27 ec bc
       0.034904893 0.015656374 -0.025286961 -0.028827328
0003c0 ea 0c bb 3c f7 29 8c bc 41 98 04 3d a3 9c 10 bd
       0.022833306 -0.017109854 0.032371763 -0.03530563
0003d0 47 9c 08 3d d0 cc 47 3b f8 13 bb bc 2e 4d eb 3c
       0.033352163 0.0030487068 -0.02283667 0.028723326
0003e0 7e c4 80 bc b6 59 ea 3c 70 c0 61 3c c6 ea fe 3c
       -0.015718695 0.02860723 0.013778791 0.031117808
0003f0 2e e5 51 bc c0 fd a4 bb 0e fb 8c bc 80 13 43 bc
       -0.012810988 -0.005035132 -0.017209556 -0.011906505

hidden1.bias f4 [100]
000000 7e 7f 8a bc dc 70 bf bb f3 97 bd bc b8 28 b7 3b
       -0.016906496 -0.0058423113 -0.023143744 0.005589571
000010 30 dc 42 3c 6a a0 7e bc fd c8 01 bd 38 75 41 3c
       0.011893317 -0.015541175 -0.031685818 0.011807732
000020 48 4b 8d 3b 92 ac 54 bc dc c8 9b bc c5 76 81 bc
       0.0043119527 -0.012980597 -0.019016676 -0.015803704
000030 3a fa 9f bc c8 54 6c 3c 80 73 d3 39 62 6f e5 3c
       -0.019528497 0.01442451 0.0004033111 0.028007213
000040 9e 57 fe 3c 9b 7b 00 3d 9a a5 a7 bc a8 00 97 3b
       0.031047639 0.03136788 -0.020464707 0.0046082325
000050 c6 8b ed 3c 32 e3 3b bc 64 99 80 3c 18 f4 bd bc
       0.028997313 -0.011467742 0.015698142 -0.023187682
000060 60 87 d8 bc 2e a5 42 bc 80 4e de b9 d4 18 a2 bb
       -0.02643174 -0.011880202 -0.00042401627 -0.0049468074
000070 d5 c0 ef bc 68 10 96 3b 4c 17 a7 bc 20 d2 14 bc
       -0.029266754 0.0045795925 -0.020396851 -0.009083301
000080 25 0a 10 bd 7a e3 aa bc d1 b9 04 3d 25 86 99 bc
       -0.035165925 -0.020860422 0.03240377 -0.018740723
000090 48 71 a6 bb 6a be 77 bc 23 45 02 bd a8 30 de bc
       -0.005079422 -0.015121082 -0.031804215 -0.02712281
0000a0 60 4c c6 3b 00 7c d1 b9 d0 f6 7c 3b a5 bf e0 bc
       0.006051585 -0.00039955974 0.003859926 -0.027435133
0000b0 a0 be bc ba 24 24 05 3c 1a c2 db 3c dc 29 36 bc
       -0.0014400072 0.008126292 0.026825953 -0.0111183785
0000c0 d8 72 b5 3c c6 26 f3 3c 05 36 f1 bc a6 d4 c3 3c
       0.022149488 0.029681575 -0.029444704 0.02390511
0000d0 46 28 cc 3c e6 c7 ff 3c fc 1d 71 bc 9c d8 b6 bc
       0.024921548 0.031223249 -0.0147166215 -0.022320084
0000e0 48 30 a0 bb e0 b8 61 bc 2c 2b fe bc 8e 01 38 bc
       -0.004888568 -0.013776988 -0.031026445 -0.011230839
0000f0 5c b8 d9 3c 00 2e 1a 3c de 0e 01 bd 40 75 b5 bc
       0.026577167 0.009410381 -0.03150832 -0.022150636
000100 c6 f4 3d bc 0c 81 94 bc b5 21 ed bc ca 79 4c bc
       -0.011594003 -0.01812794 -0.028946737 -0.012480209
000110 dc f4 f8 bc fe ce bf bc 80 c6 03 3a d0 87 e3 bc
       -0.030390196 -0.023414131 0.0005026832 -0.027774721
000120 fd 89 10 3d cb ea 0a 3d 20 85 86 bc e7 41 0f 3d
       0.035287846 0.033915322 -0.0164209 0.03497496
000130 70 87 b5 bc 5c c2 35 3c 84 e0 0a bc 26 17 ac 3c
       -0.022159308 0.011093702 -0.00847638 0.021007132
000140 f8 29 c6 bc 25 76 8a bc e0 01 41 bc 0a 59 f6 bc
       -0.024189934 -0.016902039 -0.011780232 -0.030071754
000150 f8 5b e1 bb c0 3b c2 3c 7a 02 a2 bc 0e c6 c1 bc
       -0.0068774186 0.023710132 -0.019776572 -0.02365401
000160 3c d1 cf 3c be e9 80 3c aa df 0a bd c6 b3 77 bc
       0.025368325 0.015736457 -0.03390471 -0.015118545
000170 10 10 3b 3c 10 dd ff 3b a0 2a c0 3a b8 6c a5 3c
       0.011417404 0.007808335 0.0014661141 0.020193443
000180 20 17 1b 3c 9e 79 8f bc 2f a7 09 3d 87 6f 00 3d
       0.009465963 -0.017514046 0.033606704 0.03135636

hidden2.weight f4 [100, 100]
000000 fd 0d 7c bd d9 f4 a5 3d a0 7d aa bd 8f 5e c8 3d
       -0.061536778 0.081033416 -0.08324742 0.097836606
000010 44 e4 e9 3c c0 28 f4 bc cd d8 84 3d 72 69 12 3d
       0.028551228 -0.029804587 0.06486664 0.03574509
000020 ec 44 d9 3c 52 f8 1e 3d 2d 1e 9f bd f3 af 1b bd
       0.026522122 0.038811035 -0.077694274 -0.038009595
000030 00 2f 09 bb 77 29 7e bd bd a0 5c bd 13 29 3a bd
       -0.0020932555 -0.062051263 -0.05386423 -0.045449328
000040 d9 d4 a4 3d 98 bc 80 3c 60 24 f0 bb 60 44 ea 3b
       0.0804841 0.015714929 -0.007328555 0.007149264
000050 0a 43 2f 3d b7 c8 7c bd e1 13 88 3d 84 7a f9 3c
       0.042788543 -0.061714854 0.066444166 0.030453928
000060 5f 99 b7 bd c8 e4 92 bc 0f b7 90 3d 50 a6 f4 3b
       -0.089648 -0.017931357 0.07066166 0.007466115
000070 f8 b5 a8 bc 4d e9 82 3d 92 37 5e 3d 20 d5 aa bb
       -0.020594582 0.06392155 0.054252215 -0.0052133948
000080 60 58 c3 bb 70 59 47 bd ea 32 3b 3d 17 6a ad bd
       -0.005961463 -0.04866928 0.045702852 -0.08467501
000090 b4 d3 e1 bc 0c db d8 bc e0 55 bd 3c 69 7c a0 3d
       -0.027566768 -0.026471637 0.023112237 0.07836229
0000a0 2d 79 ad bd 42 04 71 3d 52 e0 60 3d 9b 3c 9b 3d
       -0.08470378 0.05884195 0.05490143 0.07579919
0000b0 7b c8 b8 3d 90 18 2b 3c d5 3e 82 3d a0 84 a1 3b
       0.090226136 0.010442868 0.063596405 0.00492914
0000c0 d3 23 1f bd f4 89 11 bd c0 5e 7a 3c e2 fb 6b 3d
       -0.038852524 -0.035531953 0.015281379 0.05761326
0000d0 db da a9 bd 8a 12 11 bd ba 38 80 bd b0 91 6c bd
       -0.082936965 -0.03541807 -0.0626082 -0.057756126
0000e0 8a 9b 38 bd a1 99 a5 3d f5 2b 8f bd 89 00 a8 3d
       -0.04507021 0.08085943 -0.06990806 0.08203227
0000f0 22 0a 0c 3d 6d f3 90 3d a0 0b 1a bb e2 e7 c1 bd
       0.03418935 0.0707768 -0.0023505464 -0.09468056
000100 c0 96 10 3b d0 c8 cb 3b b0 80 2e bd 62 8b 10 3d
       0.002206251 0.006219007 -0.042603195 0.035289176
000110 5d d2 8c bd 74 33 b4 3c f3 a5 32 bd 18 3b 82 bd
       -0.06876061 0.021997191 -0.043615293 -0.063589275
000120 a4 aa d2 3c 0a 6d 48 bd c0 15 6b bd c2 9e 57 3d
       0.025716133 -0.048932113 -0.05739379 0.052641638
000130 68 c5 ca bc 55 0a 93 bd cc 0b a5 3c d2 d8 79 3d
       -0.024752334 -0.07179705 0.020147227 0.06099779
000140 d5 f9 93 3d 80 4c 47 3c 68 28 a7 bd d4 e7 fe bc
       0.07225386 0.012164235 -0.08162004 -0.031116404
000150 6a 3f 53 bd 80 16 8e 3b c0 69 35 3b 86 ef 07 bd
       -0.05157415 0.0043361783 0.002768144 -0.03318741
000160 c0 79 9d bd ad dc 85 3d a9 01 b2 3d c0 52 34 bb
       -0.076892376 0.06536231 0.08691723 -0.0027515143
000170 20 51 2b bd e1 a7 bf 3d d8 ed eb bc 7d b3 28 bd
       -0.041825414 0.09358192 -0.028799936 -0.0411868
000180 ce 51 94 bd 95 08 94 bd 68 54 58 3c f7 58 7e bd
       -0.072421655 -0.072281994 0.013203718 -0.062096562
000190 ac fd a0 3c 28 18 c9 bd f4 45 fb bc 61 5f 91 3d
       0.01965221 -0.098190606 -0.030673005 0.0709827
0001a0 60 49 97 3c 72 c6 37 3d 74 f3 a6 bc 2d 99 26 bd
       0.018467605 0.044866987 -0.02037976 -0.040673424
0001b0 2d bf 58 bd 9f 50 ba bd dd a8 bf bd 8a 9a 3d 3d
       -0.052916694 -0.090974085 -0.0935838 0.046289958
0001c0 ab 9a b6 bd 50 4b 4a bd d2 57 5f 3d 08 cd 9c bc
       -0.08916219 -0.04938823 0.05452711 -0.019140735
0001d0 40 ab 2d 3c 32 2c 83 bd aa f9 2a 3d 22 5e a9 bd
       0.010599911 -0.06404914 0.041742004 -0.082699075
0001e0 02 1d 63 3d 2a b2 14 3d 5b d5 bf 3d 4c 7a fd bc
       0.055447586 0.036302723 0.09366866 -0.030942105
0001f0 05 b6 82 bd ee 9d 7f 3d db 94 a3 bd 1a dc 4a 3d
       -0.06382374 0.062406473 -0.07987376 0.04952631
000200 00 d8 90 3b 7b bc 88 3d 63 42 bf 3d d8 89 b3 bc
       0.0044202805 0.06676575 0.09338834 -0.021916315
000210 c0 82 c7 bc 8d da bb bd 44 6e ee 3c 73 9d ad 3d
       -0.024354339 -0.09172545 0.029105313 0.08477297
000220 90 5c 43 bd 59 10 80 3d 4f 46 ca bd 36 fa 18 bd
       -0.047695696 0.06253118 -0.098766916 -0.037347995
000230 ff bb b0 bd 18 9b 6c bc 7f a5 ba bd 50 bb f0 3b
       -0.086296074 -0.014441274 -0.09113597 0.007346548
000240 fd af b5 3d 72 fa 46 3d aa fc 1a 3d 33 fb 3e bd
       0.08871458 0.048578687 0.037838615 -0.04662628
000250 e0 af b0 bc 26 1d 4f 3d 9e 73 a8 bd 44 4d 13 bd
       -0.021568239 0.050564907 -0.08225177 -0.035962358
000260 27 90 31 bd ba 98 8b bd 6a 6b 72 bd b8 c7 8d bd
       -0.043350365 -0.0681624 -0.05918447 -0.06922859
000270 8d 06 50 bd 71 e4 b4 3d 5d f2 c2 bd 3a 27 90 bd
       -0.050787497 0.08832634 -0.095188834 -0.07038732
000280 ba 45 64 3d 6d bf ae bd 75 3a c0 3d 69 48 c9 3d
       0.05573056 -0.08532605 0.0938615 0.09828264
000290 8d 0c 80 bd 7e e9 40 3d da c3 b3 bd 18 e5 84 bc
       -0.06252394 0.047097676 -0.0877759 -0.016222522
0002a0 a2 7e 39 3d 80 fd 2e 3c 6a 93 8e bd 00 9b ae bd
       0.045286782 0.010680556 -0.06961711 -0.08525658
0002b0 d2 17 0c 3d e8 a2 be bc 0a 97 3f bd 40 6c 0f 3c
       0.034202404 -0.02327104 -0.0467749 0.008753836
0002c0 6f 33 c7 3d cc 2a 80 bc 6a da 3a 3d 68 d6 44 3c
       0.09726607 -0.015645407 0.045618452 0.012014009
0002d0 22 5b 82 bd 50 f6 a9 3b 67 22 4b bd f4 20 b3 bc
       -0.063650385 0.0051868334 -0.049593356 -0.0218663
0002e0 1a 0e 4c 3d c7 2b ca bd a0 00 3c bd 28 f8 58 bc
       0.049818136 -0.09871631 -0.045899034 -0.013242759
0002f0 92 75 13 3d 2b 9f 9e 3d 83 c3 42 bd 88 ce 82 3c
       0.036000796 0.07745203 -0.047549736 0.015967622
000300 a0 4e 05 3b 51 69 c0 3d 63 25 6e bd fc f5 84 bd
       0.0020341054 0.093950875 -0.058141124 -0.0649223
000310 88 bf 91 bc 81 d5 8d 3d 80 5d 54 3a 58 8b 9f 3c
       -0.017791525 0.06925488 0.0008101091 0.019475624
000320 fa fc 73 bd 0f 9e a1 3d 50 40 16 bc f2 c3 6b 3d
       -0.05956743 0.078914754 -0.009170607 0.057559915
000330 fd 1d 8c 3d f2 6c 5a 3d a4 87 f9 3c c1 69 c8 3d
       0.06841657 0.053326555 0.030460186 0.09785796
000340 c1 6d 8c 3d 93 c7 9b bd 86 bd 45 3d 61 0b 94 3d
       0.068568714 -0.07606425 0.048276447 0.07228733
000350 94 57 a9 bc 82 2e 56 3d 43 dc 57 bd c2 00 01 3d
       -0.020671643 0.052290447 -0.052700292 0.031494863
000360 90 d6 30 bd c2 07 51 3d 9c f7 d5 3c e8 92 c6 bc
       -0.043173373 0.05103279 0.026119046 -0.024239972
000370 2f 38 87 3d e0 7f 80 bb 0b 8f 8d bd 1d 61 ad bd
       0.06602513 -0.003921494 -0.06912049 -0.084657885
000380 97 ea c7 bd a3 77 39 bd 94 59 db bc 76 3c 09 bd
       -0.09761541 -0.04528011 -0.026776113 -0.033504926
000390 e3 bc 60 bd 1e cf 28 3d f2 ba 03 3d f0 62 6e bc
       -0.054867636 0.041213147 0.032160707 -0.014549956
0003a0 02 61 64 3d 6a f7 4f bd 82 3e 1a 3d c2 5f ba bd
       0.055756576 -0.05077306 0.03765727 -0.091002956
0003b0 ba c5 55 3d e3 52 ae 3d 42 31 3c 3d 60 63 c4 bc
       0.05219052 0.08511903 0.045945413 -0.023973167
0003c0 d0 80 0d bc 41 b5 ca 3d cf 3f cb 3d e4 9d 81 bd
       -0.008636668 0.09897853 0.0992428 -0.06328943
0003d0 c5 d6 bc 3d 8a 9c ac bd 2e 4c 5d 3d 03 87 7e bd
       0.092206515 -0.08428295 0.05402773 -0.062140476
0003e0 00 fa d8 3b 74 29 cb 3c da bd 0f 3d ba 58 08 3d
       0.006621599 0.02480004 0.035093166 0.03328774
0003f0 39 ce 9d 3d 2c 21 a7 3c ea 94 40 bd 12 84 7b 3d
       0.077053495 0.02040156 -0.047017016 0.06140525

hidden2.bias f4 [100]
000000 15 aa b2 bd 40 bb 23 bb ec 9e e9 bc 02 03 48 3d
       -0.08723847 -0.0024983436 -0.028518163 0.048830993
000010 1a 98 9c bd 6e 66 28 3d 8c 2a dc bc 63 50 66 bd
       -0.076461986 0.04111331 -0.026875757 -0.056229006
000020 73 57 88 3d e8 a2 9c bc 68 fc a3 bc 40 e1 37 bb
       0.066573046 -0.019120649 -0.020017818 -0.0028057843
000030 d2 07 91 bd 00 18 04 3a c9 7f 96 3d 00 35 53 bb
       -0.0708157 0.00050389767 0.07348592 -0.0032227635
000040 bd 44 1a bd 60 fa cb 3b 93 b7 b2 3d 31 18 cc 3d
       -0.03766321 0.0062249154 0.0872642 0.09965552
000050 e1 91 9b 3d b3 1f a6 bd 1c e2 f5 3c 40 4d ee bc
       0.075961836 -0.08111515 0.030015044 -0.02908957
000060 03 c4 6d bd 0d a4 90 bd b4 2c eb bc 59 4b a5 3d
       -0.05804826 -0.0706254 -0.02870784 0.08071012
000070 3e f5 1f 3d 73 47 90 3d 1a b3 1f bd 4d b1 6b bd
       0.03905224 0.07044878 -0.038989164 -0.057542134
000080 5f 88 bd bd 0e 08 86 bd 50 1e 10 bd a5 12 9c bd
       -0.09254526 -0.06544505 -0.03518516 -0.07620744
000090 6c 90 a8 bc e8 d8 89 bc 31 88 c5 3d 40 18 9e bc
       -0.020576678 -0.016827062 0.09645117 -0.019298673
0000a0 ea 94 aa bd bd 07 82 3d b4 90 eb bc fa 9f 35 3d
       -0.08329184 0.06349132 -0.028755523 0.04434202
0000b0 20 3b ca 3c 05 40 98 3d ce 8b 38 3d 4f 46 ba bd
       0.024686396 0.07434086 0.045055203 -0.090954416
0000c0 7b 4b b3 3d ac 3d e8 bc c0 0b 9e bc 04 85 13 bd
       0.08754631 -0.02834972 -0.019292712 -0.036015525
0000d0 94 03 80 bc ad a8 91 bd ab c3 93 3d e2 f6 4d 3d
       -0.015626706 -0.071122505 0.07215055 0.050284274
0000e0 2d 76 75 bd e8 23 8f bc c0 78 3f 3c 36 05 90 bd
       -0.059927154 -0.017473176 0.011686504 -0.07032244
0000f0 a9 90 85 3d db 5e b8 3d 69 0d c2 3d 90 d5 1d 3c
       0.06521732 0.09002467 0.09475214 0.009633437
000100 28 17 38 3c 50 53 7d bd 3e e9 98 bd 98 83 85 bc
       0.01123599 -0.06184703 -0.074663624 -0.0162981
000110 c0 22 4b bd 9e 1a 7e 3d 8f bd b9 3d 32 2d 13 3d
       -0.049593687 0.062037103 0.090693586 0.035931773
000120 dd c2 28 bd 1d 3b 9c bd 9a a4 11 bd b2 1c c9 bd
       -0.04120146 -0.076284625 -0.035557367 -0.09819926
000130 82 46 3a 3d 2e e6 63 3d 06 32 08 bd 35 2e b6 bd
       0.045477398 0.05563944 -0.03325083 -0.08895532
000140 10 d8 56 bc 72 f8 25 3d 22 e6 9b bd 17 42 66 bd
       -0.013113037 0.04052014 -0.07612254 -0.056215372
000150 93 95 74 bd 61 3a af 3d 46 d5 5e 3d 93 be a1 3d
       -0.059712958 0.08556057 0.054402612 0.07897677
000160 60 0f ab bc 72 7b 0b 3d 00 94 4b 3b 30 a1 99 bd
       -0.020881355 0.034053273 0.0031063557 -0.07501447
000170 a8 87 f6 bc 31 7b a6 3d e0 4c b2 bc 7d 9f 8f 3d
       -0.030093983 0.08128966 -0.021765172 0.07012842
000180 43 ee 94 bd c1 de 98 3d 30 30 52 bc f2 b2 3d 3d
       -0.07272007 0.07464362 -0.012828872 0.046313234

hidden3.weight f4 [100, 100]
000000 f2 1d 80 bd 94 c3 f0 bc 70 65 13 bc 73 84 3f bd
       -0.062557116 -0.029390134 -0.008996353 -0.046757173
000010 73 f4 2c bd 60 2c d0 3b 80 88 07 bc 00 b2 3c 3c
       -0.042225312 0.006352946 -0.00827229 0.011517048
000020 42 d9 4a 3d d2 35 26 3d 90 fb 07 bc d8 4a 56 3c
       0.0495236 0.04057867 -0.008299723 0.013079368
000030 25 c3 95 bd 00 b1 17 3b 4d c5 8a bd cc 91 d6 3c
       -0.073126115 0.0023146272 -0.067759134 0.026192568
000040 d1 d1 87 3d 82 7a c9 bd fa 9f ca bd 09 95 b6 3d
       0.06631816 -0.0983782 -0.09893794 0.08915145
000050 15 bb c4 bd 01 fb ca 3d e8 bf 40 bc df 36 bd bd
       -0.096059956 0.099111564 -0.011764504 -0.092389815
000060 57 09 c9 3d 10 b2 04 3c 90 c1 1c bc 63 5c 26 bd
       0.098162346 0.008099094 -0.009567633 -0.04061545
000070 53 af 59 bd 6a 1a 2f bd 6a fa 33 bd 1e d8 54 3d
       -0.053145718 -0.0427498 -0.043939985 0.051963918
000080 f2 ac 52 3d 96 18 69 3d f3 b0 a1 3d 68 17 19 bc
       0.051434465 0.056908213 0.078950785 -0.009343959
000090 88 c6 b1 3c a7 72 a4 3d c6 d4 51 3d b2 3a 06 3d
       0.021701112 0.08029681 0.051228307 0.03277082
0000a0 ae e3 87 bd 49 2b 86 3d 54 98 f8 bc b2 68 40 3d
       -0.06635223 0.06551225 -0.030346073 0.046974845
0000b0 0c 7d f8 bc 69 fe ad 3d 64 a4 16 bd 48 1e b3 3c
       -0.030333064 0.084957905 -0.03677787 0.021865025
0000c0 d0 23 9b 3b 0c 58 c6 3c f8 68 f4 bc e1 26 c3 3d
       0.004734494 0.024211906 -0.02983521 0.095289
0000d0 07 ae 3c bd bd cf b4 3d 23 11 ae 3d 36 b3 9c bd
       -0.046064403 0.088286854 0.08499362 -0.07651369
0000e0 2a 02 3b 3d af 48 c1 3d 6a e4 1a 3d 40 54 4c bb
       0.04565636 0.094376914 0.03781549 -0.0031178147
0000f0 17 de 83 3d c2 be 9d bd c3 43 68 bd 00 ac 35 bc
       0.06438845 -0.077024 -0.056705248 -0.011088371
000100 16 81 53 3d d4 44 f4 3c ac 20 90 3c 40 a5 66 3c
       0.051636778 0.029817976 0.017593704 0.014077485
000110 d5 ca cb 3d c2 b8 65 3d 1a e8 3d bd 00 87 44 3a
       0.099507965 0.056084402 -0.046363927 0.0007496923
000120 a6 36 a6 bd 00 31 39 bb d1 27 97 3d 6f 03 ba 3d
       -0.08115892 -0.0028257966 0.07380641 0.09082686
000130 b1 24 c7 3d 92 24 81 bd 58 77 95 bd b1 82 93 3d
       0.09723795 -0.06305803 -0.07298154 0.07202662
000140 d0 0c 39 bc e1 23 86 3d 72 13 66 3d d0 1a b5 3b
       -0.011294559 0.06549812 0.05617089 0.005526878
000150 6c 78 b0 bc 04 b0 e3 3c 02 5b 24 3d 20 4e 9a 3c
       -0.021541797 0.027793892 0.040125854 0.018836081
000160 48 ba 8d 3c c1 f1 a9 3d 30 c9 fa 3b 39 74 bc 3d
       0.01730074 0.08298064 0.007653378 0.09201855
000170 cc 72 88 bd 88 2e b3 bc 03 0f 90 bd cc 65 c0 bc
       -0.06662521 -0.021872774 -0.07034113 -0.02348604
000180 45 a3 c9 3d 27 1f 3b bd d8 81 8d bd a2 c7 79 3d
       0.09845594 -0.045684006 -0.06909531 0.0609814
000190 b9 d7 8a 3d 40 39 ec bc 0b 1f ac bd b7 a9 5b bd
       0.06779427 -0.028835893 -0.084043585 -0.05362865
0001a0 ed 38 9f bd e6 1e 57 3d b3 04 44 bd 80 fc a9 3b
       -0.077745296 0.0525197 -0.047856044 0.005187571
0001b0 4a 76 33 bd 4a 31 c7 bd c0 a3 2a bc 18 8d 82 bc
       -0.04381398 -0.09726198 -0.010415018 -0.01593642
0001c0 c0 54 3a bd 36 32 5a 3d aa 7b 76 bd 80 89 ac bb
       -0.04549098 0.05327054 -0.06017653 -0.0052654147
0001d0 ec b2 a4 bc 50 f3 a8 bd 33 25 a4 3d 1d 22 bf 3d
       -0.020104848 -0.08249533 0.08014908 0.093326785
0001e0 00 13 77 bb 00 74 a0 bd d4 b1 13 bd 6f 56 bc bd
       -0.0037700534 -0.07834625 -0.036058262 -0.091961734
0001f0 82 39 c3 bd 94 b2 d0 3c b9 43 be 3d a7 61 c9 3d
       -0.09532453 0.025475778 0.09290261 0.09833079
000200 d8 b6 1d bc 6d 86 6b bd f4 4f b4 3c 14 f9 ed bc
       -0.009626113 -0.057501245 0.02201078 -0.029049434
000210 e0 fb 85 bb aa cf 67 bd e3 9e 66 bd 0c 37 99 bc
       -0.0040888637 -0.05659453 -0.05630387 -0.018703006
000220 d4 ef 98 3c 2a d4 6f bd 98 39 15 3c 83 e2 a7 3d
       0.018669046 -0.058551945 0.00910797 0.081975006
000230 68 98 1c 3c e0 33 c7 bd d8 a4 6f 3c 26 80 35 3d
       0.009557821 -0.09726691 0.014626704 0.044311665
000240 a0 2b d3 bc 80 15 3d bc 62 84 3f 3d 50 71 27 bc
       -0.025777638 -0.0115407705 0.04675711 -0.010219887
000250 6d e6 8d 3d a9 66 c8 3d 18 20 b6 bc 36 2f 9c bd
       0.06928716 0.09785206 -0.0222321 -0.07626192
000260 a8 f5 14 3c 2b bc 95 bd b4 e9 9b 3c b2 15 c8 bd
       0.009091772 -0.07311281 0.019032337 -0.09769763
000270 3a 93 10 bd 78 45 c8 bc aa 28 09 bd d4 93 16 bd
       -0.035296656 -0.024447188 -0.033486046 -0.036762074
000280 79 7e a4 3d 6c cb 86 bc 54 36 8f bc 3a ff 64 bd
       0.08031935 -0.016454421 -0.01748196 -0.055907466
000290 82 e3 02 3d 6d c9 8f 3d 80 39 23 3c 20 7a bb bc
       0.03195525 0.07020841 0.00996244 -0.022885382
0002a0 a0 a5 b7 bc f7 ee cb bd e0 e3 d6 bb f7 bf 92 3d
       -0.022417843 -0.09957688 -0.0065579265 0.07165521
0002b0 fe a2 13 3d 72 5f 16 3d 00 51 ae bc bf 9b 8a 3d
       0.036044113 0.036712117 -0.021278858 0.067679875
0002c0 60 db c8 3c 1a 0e 8f bd ed d6 9f bd 82 2a 87 bd
       0.024518669 -0.069851115 -0.07804666 -0.065999046
0002d0 1f 57 8c 3d a8 45 f7 bc b1 8c 8a 3d 30 56 f2 bb
       0.068525545 -0.030184582 0.06765116 -0.0073955283
0002e0 5d f2 19 bd 5a ce 55 3d 32 4b 1c 3d 49 f6 94 3d
       -0.03758465 0.052198745 0.03815765 0.07273538
0002f0 8e e3 09 3d 9e c5 02 3d e0 03 77 bd 2a 2e ad bd
       0.03366428 0.031926744 -0.06030643 -0.08456071
000300 b7 1c 32 bd 59 1e a7 3d 89 f1 bd 3d 20 09 98 3b
       -0.043484416 0.08160085 0.09274585 0.0046397597
000310 fd f0 78 bd b0 5d 15 bc b0 67 10 3c b0 93 9e 3b
       -0.0607767 -0.009116575 0.0088137835 0.004839383
000320 0d 5e 75 bd e3 1b ab 3d 66 49 54 3d a2 92 16 3d
       -0.059904147 0.08354928 0.05182781 0.036760934
000330 a8 21 9f bd d4 ba a9 3c 0a 81 95 bd ab 36 bb 3d
       -0.07770091 0.02071897 -0.07300003 0.091412865
000340 43 b7 89 3d b0 f0 21 bc b2 d2 32 3d 92 96 a4 bd
       0.067244075 -0.0098840445 0.043657966 -0.080365315
000350 36 ed 49 3d 15 66 a7 bd 43 a6 9e bd 02 36 6c 3d
       0.049298488 -0.081737675 -0.07746556 0.057668693
000360 54 03 cd 3c 7a f0 49 3d 51 83 8b 3d 67 d0 a2 3d
       0.025026001 0.049301602 0.06812156 0.07949906
000370 39 bb c9 3d b6 76 6d 3d 5f ce 8e 3d 93 94 97 3d
       0.09850163 0.05797454 0.06972956 0.07401385
000380 aa 1e 00 bd 45 5c ae 3d 80 4a a3 3c f8 dc 92 bd
       -0.031279244 0.08513693 0.019932985 -0.07171053
000390 7a 02 4a 3d 80 d5 7d 3c f5 be 95 bd 02 38 5e 3d
       0.049318768 0.015492797 -0.07311813 0.054252632
0003a0 50 90 bd 3b 55 0c 85 bd 82 86 a8 bd 70 b5 66 bc
       0.0057850257 -0.06496493 -0.0822878 -0.014081344
0003b0 82 49 65 3d 98 e0 50 3c 46 1a 0f 3d a9 db 8d 3d
       0.055978306 0.01274886 0.034937166 0.069266625
0003c0 c3 7e 3f bd b3 ab 9b 3d 3a 91 50 3d b2 0b 5a 3d
       -0.04675175 0.076011084 0.05091975 0.05323381
0003d0 33 05 b4 bd 6e 78 4f 3d f0 5a 20 bd 2f a5 cc bd
       -0.08790054 0.05065196 -0.039149225 -0.09992444
0003e0 80 3e 0f bd d9 4c bd 3d 0c 07 f8 bc bb cc 8e bd
       -0.034971714 0.09243173 -0.030276798 -0.06972643
0003f0 e0 7c d9 bb b6 c8 80 bd 3a 10 06 bd e8 56 41 bc
       -0.0066372007 -0.062882826 -0.03273032 -0.011800505

hidden3.bias f4 [100]
000000 80 52 d1 bc 00 83 cf 39 db 21 c1 3d 18 fb 85 bd
       -0.025552034 0.0003957972 0.094302855 -0.06542033
000010 b3 31 39 bd 2c 7f b0 3c 32 a7 32 3d 18 d1 5d 3c
       -0.045213412 0.021545015 0.04361648 0.013538621
000020 10 c1 30 3c 80 73 c7 ba 8a 86 45 bd 60 7a c7 bd
       0.010788217 -0.0015216917 -0.04822401 -0.09740138
000030 13 fd 92 3d 22 92 c6 bd a7 eb 93 3d 58 fd 12 3c
       0.07177176 -0.09695841 0.072226815 0.008971535
000040 6a ad 3d bd 43 0f 51 bd 96 46 55 3d d0 7c 41 bc
       -0.04630796 -0.051039945 0.05206927 -0.011809543
000050 37 99 b2 3d f4 bd c0 bc 38 cf bd bd c6 29 0f 3d
       0.0872063 -0.023528077 -0.092680395 0.034951948
000060 bd 97 8a bd 39 07 a3 3d a0 8d e0 3b aa 36 6f bd
       -0.06767223 0.07960362 0.0068528205 -0.05840174
000070 13 9f ad 3d 38 e1 ee bc c9 00 a8 3d 32 a4 58 3d
       0.084776066 -0.029160127 0.08203275 0.052890964
000080 9a b5 a0 bd 38 ae a9 3c 99 d8 b0 3d f0 b3 35 bd
       -0.07847138 0.020712957 0.08635063 -0.044361055
000090 31 ba ba 3d c7 55 be 3d de a0 83 bd fa db 01 3d
       0.091175444 0.092937045 -0.06427167 0.031703927
0000a0 d6 a7 28 3d a7 23 ad 3d eb 6a b0 3d 05 83 c0 3d
       0.041175686 0.08454066 0.08614143 0.0939999
0000b0 ef 1f b0 3d 68 65 87 3c f8 5e a0 bc 7e c4 3c 3d
       0.08599841 0.016527846 -0.019576535 0.046085827
0000c0 90 09 ab bd d5 30 88 bd e8 9c ae 3c d0 e0 d3 bb
       -0.08351433 -0.06649939 0.021315053 -0.0064660087
0000d0 52 63 0f 3d c2 bd 30 3d cc e6 fb bc 2c a2 d0 3c
       0.03500683 0.043149717 -0.030749701 0.025467955
0000e0 ce d4 a6 bd 6c 21 ca bc 7f 39 b9 bd 7e 26 41 3d
       -0.08146058 -0.02467414 -0.0904417 0.04715585
0000f0 89 63 8d 3d b9 a9 9e 3d 1f 6f ba bd 39 c5 b4 3d
       0.069037504 0.07747216 -0.09103226 0.0882668
000100 76 42 73 3d 4d 0b 72 bd e5 d8 b7 bd 90 05 21 bd
       0.059389554 -0.05909281 -0.08976916 -0.039311945
000110 18 3f 36 3c 09 81 b7 3d 4e 4e 29 3d 52 3d 3c 3d
       0.011123441 0.089601584 0.041334443 0.045956917
000120 2c ac 11 bd 51 3a b8 3d c0 b5 2e 3c 6a 27 3a bd
       -0.035564587 0.08995498 0.01066345 -0.045447744
000130 db e7 aa bd 71 e3 95 3d b6 45 ac bd 60 74 35 bb
       -0.08345004 0.07318772 -0.08411734 -0.0027687773
000140 c0 8c 23 3b 0b 23 c3 3d b3 fe 2e bd d7 c0 55 bd
       0.002495572 0.09528168 -0.04272337 -0.05218586
000150 20 5a 9e 3c a8 0a a2 3c 09 02 a5 3d 02 8d 32 3d
       0.019330084 0.019780472 0.08057029 0.043591507
000160 50 01 3c bd 52 a8 24 3d 1a 9b 5b bd 8b f6 9c 3d
       -0.04589969 0.040199585 -0.053614713 0.07664212
000170 f4 b3 92 bc de e5 3f 3d 98 d0 ff bc c0 da 54 bc
       -0.017908074 0.046850078 -0.031227395 -0.012991607
000180 d7 f5 43 bd 00 d4 4e 3c 60 a0 79 bb df bb c1 3d
       -0.047841873 0.012623787 -0.0038089976 0.09459662

classification_layer.weight f4 [10, 100]
000000 ba 1f 3f 3d 2a 86 20 bd 94 d0 98 3c 6c ef b0 3c
       0.046661116 -0.03919045 0.018654145 0.02159854
000010 80 67 d0 ba 78 20 c7 bd 7d 67 7a bd a9 6c 9c 3d
       -0.0015899986 -0.0972299 -0.06113385 0.07637913
000020 b5 3d cb bd 04 19 cd 3c be 07 11 3d 00 b8 17 bd
       -0.09923879 0.025036342 0.035407774 -0.03704071
000030 c0 e8 42 bd 28 56 93 3c 6c 70 f4 bc e2 20 14 3d
       -0.04758525 0.017985418 -0.029838763 0.036164172
000040 36 69 53 3d da b4 11 bd 13 3e b2 3d f0 92 4c bc
       0.05161401 -0.035572864 0.08703246 -0.0124862045
000050 fd a0 b5 3d 12 18 5d 3d d0 51 ef bb 33 b0 5a bd
       0.08868597 0.053978033 -0.007303454 -0.053390693
000060 c9 80 b8 3d 2c 3e cf bc 47 4e b2 3d 00 51 81 3b
       0.09008939 -0.0252982 0.087063365 0.0039464235
000070 f3 4d 6d bd e6 23 a5 bd 18 84 00 bc 37 b9 9b 3d
       -0.057935666 -0.08063488 -0.007843994 0.07603686
000080 4f 83 bc 3d aa 5d 1a bd 68 b4 4c 3c 35 20 a2 3d
       0.092047326 -0.03768698 0.012494184 0.07916299
000090 8b a9 97 3d b2 2b 30 3d ec 97 e7 3c a6 78 69 3d
       0.07405385 0.04301042 0.028270684 0.056999825
0000a0 80 9a 7b ba a0 4d 4b bb 6b 16 be 3d 4a 02 74 3d
       -0.00095979124 -0.003102161 0.0928162 0.059572496
0000b0 36 55 5e 3d a6 79 35 3d 80 7e d9 3a e9 4e 80 3d
       0.054280482 0.044305466 0.0016593486 0.06265051
0000c0 d0 4f 3a bc 56 fb 77 3d 6e ae 57 3d 69 8a ca 3d
       -0.011371568 0.060542427 0.052656583 0.09889681
0000d0 77 0d 5f bd 45 c9 bb 3d c0 92 d8 ba 40 2b dc ba
       -0.0544562 0.091692485 -0.0016523227 -0.0016797557
0000e0 4c e8 96 3c 8b 2d c2 3d 27 2e c3 3d a0 ff 9a bc
       0.018421315 0.09481343 0.09530287 -0.01892072
0000f0 ca 93 7e bd 01 22 c2 3d 00 d3 04 bb 4a 63 6b 3d
       -0.06215266 0.09479142 -0.0020267367 0.057467736
000100 8b 34 cc bd 45 40 90 bd db d3 95 bd 59 13 84 3d
       -0.09970959 -0.070435084 -0.07315799 0.06449003
000110 39 f1 80 3d 7a fd 25 3d a0 86 e6 bc 60 1e bc bc
       0.062960096 0.040524937 -0.028140366 -0.022963703
000120 e8 47 59 3c 99 90 ad 3d 8b ac a9 bd 80 5d f9 bc
       0.013261773 0.084748454 -0.08284863 -0.030440092
000130 a0 b4 ec bc 1a fd 87 bd da b0 2f 3d 35 5f c6 bd
       -0.028894722 -0.06640072 0.04289327 -0.09686128
000140 2d 88 87 bd c0 d2 76 3c 28 0f f5 bc ff b4 af bd
       -0.0661777 0.015064895 -0.029914454 -0.08579444
000150 37 89 c8 bd be 39 66 3d b9 38 8c 3d 33 55 44 bd
       -0.09791797 0.05620741 0.068467565 -0.047932815
000160 d7 d2 b6 3d 3d 66 a9 3d 19 e3 a6 3d 00 2d 8d bc
       0.08926933 0.082714535 0.08148784 -0.017233372
000170 c8 3e b2 bc 1a 9b 7e 3d 93 53 b0 bd cf c6 b4 bd
       -0.021758452 0.062159635 -0.086096905 -0.08826982
000180 d1 10 83 3d 0c d9 ed bc 80 04 d1 3b d0 76 ab bd
       0.06399692 -0.02903416 0.0063787103 -0.08372271
000190 88 a2 d0 bc ac ee 86 bd 03 86 45 bd 0f 13 b0 bd
       -0.025468126 -0.06588492 -0.048223507 -0.08597385
0001a0 60 6c 9f 3c 1d f4 3a bd 8a 06 23 bd 00 e9 ff 3b
       0.019460857 -0.04564296 -0.039801158 0.007809758
0001b0 10 c2 61 3c 7c fc fb 3c 60 bd 95 bd f4 b1 bf 3c
       0.013779178 0.030760042 -0.07311511 0.023400284
0001c0 9a 99 c6 bd 5e 67 95 bd c8 05 be 3c 6a 38 bb bd
       -0.09697266 -0.07295106 0.023196116 -0.091416195
0001d0 4b fe 93 bd 7b 15 ac 3d 03 f8 52 bd b4 8a 9b bc
       -0.07226237 0.084025346 -0.051506054 -0.018987037
0001e0 aa 60 51 3d 8e 3f 70 3d 98 a3 cc bd 00 46 6e 3c
       0.051117577 0.05865436 -0.099921405 0.0145430565
0001f0 90 29 3f bc 00 f0 65 bc b0 a2 20 3c dd 1e 6b bd
       -0.011667624 -0.014034271 0.009804413 -0.05740248
000200 10 90 22 bc 42 d5 b7 bd e5 82 9e 3d a8 e6 39 3c
       -0.0099220425 -0.089762226 0.0773981 0.011346497
000210 95 8b ca bd e8 64 0a 3c 2e c9 15 3d 7f fb b4 3d
       -0.098899044 0.0084469095 0.036568813 0.088370316
000220 9a 6c b9 bd 9d 51 68 bd 98 60 bf bc b2 7a 6f 3d
       -0.09053917 -0.056718457 -0.02336149 0.05846662
000230 e3 2b b3 bd 3e 37 0c 3d b4 dc 89 bc 54 77 ba 3c
       -0.08748605 0.03423237 -0.016828872 0.022761978
000240 40 3b b8 3c c0 c0 24 3b 53 d7 be 3d ad 44 58 bd
       0.02248919 0.0025139302 0.093184136 -0.05279987
000250 6e 7b 87 bd a1 5f 8b 3d 9e ce 02 3d 29 67 c8 3d
       -0.06615339 0.06805349 0.031935327 0.09785301
000260 0a dd 27 3d 98 39 8a 3c 90 e3 50 bd 9d a4 6c bd
       0.040982284 0.016873166 -0.05099827 -0.057774175
000270 16 7b 0e bd d0 bc 3b bd 18 d0 34 bc 80 c2 b5 ba
       -0.034785353 -0.045834363 -0.011035942 -0.001386717
000280 d0 1b c4 bd d8 ec 94 3c 03 44 a3 bd b3 d9 72 bd
       -0.09575617 0.018179342 -0.079719566 -0.059289645
000290 14 3e d2 3c be 9c 92 bd 32 9c ac bd 94 43 dd 3c
       0.025664367 -0.071588024 -0.084282294 0.027009763
0002a0 7d ff 69 bd b1 df ae 3d b0 48 a2 bd 49 18 93 3d
       -0.05712842 0.085387595 -0.0792402 0.071823664
0002b0 5b 26 8d bd b9 fa c5 3d 56 37 8c bd 28 3d 08 bc
       -0.06892081 0.09666962 -0.06846492 -0.008315362
0002c0 32 15 4b 3d b8 e3 a7 bc 0c 84 89 bc ea 98 09 3d
       0.04958076 -0.020494327 -0.016786598 0.033593096
0002d0 d0 78 3a 3c ba 44 09 bd 6c cf ad 3c 5d 4c b1 3d
       0.011381343 -0.03351281 0.02121707 0.08657143
0002e0 1b 9f cc 3d f5 d8 85 bd 8c b5 d0 bc 93 ba 69 bd
       0.099912845 -0.06535522 -0.025477193 -0.057062697
0002f0 b3 c7 ba bd 47 d2 33 bd 80 b3 22 bd 4e 24 01 3d
       -0.09120121 -0.043901708 -0.039721966 0.031528763
000300 54 17 d3 bc 80 49 2f bd f6 b7 81 bd e0 6b 9d bd
       -0.02576796 -0.042794704 -0.06333916 -0.07686591
000310 28 19 3c bc 30 59 10 bc f9 bd 97 3d 6c 44 e2 3c
       -0.011480607 -0.008810326 0.07409281 0.027620517
000320 20 50 d3 3b c5 47 95 3d b1 c4 c4 3d f3 25 34 bd
       0.0064487606 0.072890796 0.096078284 -0.043981504
000330 3b 6a 93 bd b0 c3 71 bc c0 70 20 3b 80 55 17 3c
       -0.07197996 -0.014756128 0.0024481267 0.009236693
000340 f6 c5 44 3d ce 36 35 3d e3 02 90 bd 47 a3 aa 3d
       0.048040353 0.04424172 -0.070318006 0.08331924
000350 70 de 3e 3c 03 23 85 3d 46 95 15 bd dc 27 00 bd
       0.011649713 0.065008186 -0.03651931 -0.031288013
000360 49 7b c1 3d 32 31 b9 bd 6a e2 cb bd 70 96 03 3c
       0.09447343 -0.090425864 -0.099552944 0.008031473
000370 bb 2f c3 3d 4e 28 36 3d ab 7a c5 3d 44 fc 0d bd
       0.09530588 0.04447203 0.09642538 -0.034664407
000380 54 12 8b 3c d3 d2 57 bd 40 8f 60 bd 90 fe 08 3c
       0.016976513 -0.052691292 -0.054824114 0.008361474
000390 f2 fe 7e 3d 78 e0 a8 bd b4 c2 ba 3c c0 3a bd 3c
       0.062254854 -0.08245939 0.02279792 0.023099303
0003a0 14 b1 12 bd e1 c0 bf 3d 20 76 43 bd c0 47 58 bb
       -0.035813406 0.093629606 -0.047720075 -0.003300175
0003b0 60 c4 c1 3b 00 fb 69 bd 40 1b 85 bd 9e 2d 75 3d
       0.0059133023 -0.057124138 -0.06499338 0.059857957
0003c0 ca 2a 36 bd cd c3 77 bd 84 b5 89 bd 2a cf 69 3d
       -0.0444744 -0.060489465 -0.067240745 0.057082333
0003d0 50 db c6 3b ba 38 4f bd 1a 8f 74 bd 20 78 6f bd
       0.0060686246 -0.050591208 -0.059706785 -0.05846417
0003e0 f8 16 9e bc d0 cc 71 3c 00 37 0a ba 9d 5b 4a bd
       -0.019298062 0.014758304 -0.0005272478 -0.049403775
0003f0 c2 d9 18 3d 9d c5 7c bd c0 b1 62 bd ba 30 2a 3d
       0.037317045 -0.061711896 -0.055345297 0.041550376

classification_layer.bias f4 [10]
000000 00 de d0 b9 ba a0 64 3d 60 94 63 bb f0 f3 28 bd
       -0.00039838254 0.055817343 -0.003472589 -0.041248262
000010 15 51 b0 3d d0 2a 46 3c 67 17 3e bd 0e 7a 7b 3d
       0.08609215 0.012095168 -0.046409037 0.061395697
000020 00 6a 95 ba 37 87 a5 3d
       -0.0011399388 0.08082431

hidden1_bn.weight f4 [100]
000000 e1 28 72 3f 88 5e e9 3e 38 b5 a4 3d 0c cb 42 3f
       0.94593626 0.45579934 0.08042377 0.76091075
000010 b0 44 64 3e f2 5c cf 3e d9 59 61 3f 2a 86 7c 3f
       0.22291827 0.405006 0.8802772 0.9864222
000020 52 48 40 3f 58 3b 11 3f dc c8 dd 3e d4 46 65 3e
       0.7511035 0.56731176 0.43317306 0.223903
000030 22 42 a7 3e 5a c0 79 3f 31 68 4b 3f 42 c9 a7 3e
       0.32667643 0.9755913 0.7945586 0.32770735
000040 c8 66 17 3e 64 8c ab 3e c0 f5 56 3e f8 3e d2 3d
       0.14785302 0.33505547 0.20992184 0.102659166
000050 f0 bf 99 3e f7 7c 1a 3f a0 6c 5c 3d af 96 71 3f
       0.3002925 0.6034693 0.05381453 0.9437055
000060 54 53 53 3f de b2 da 3e 90 2f 44 3f 74 b7 b6 3e
       0.82549024 0.4271459 0.76635075 0.3568684
000070 75 2a 08 3f b4 05 45 3f 8a 34 25 3f 0c e0 ba 3e
       0.53189784 0.7696183 0.64533293 0.3649906
000080 3e 22 f9 3e 79 b1 15 3f 18 9c ed 3e 05 8e 4f 3f
       0.48658937 0.58473927 0.46408153 0.8107608
000090 b1 c2 33 3f e0 66 fd 3c fe ee 86 3e c0 7c 53 3e
       0.7021895 0.030932844 0.26354212 0.20653057
0000a0 c1 d8 3d 3f 83 47 54 3f 9c 17 57 3f 60 8d 4e 3f
       0.74158865 0.8292162 0.840204 0.8068447
0000b0 f1 6d 15 3f bc e4 a0 3e 78 de 69 3f ab 1a 05 3f
       0.5837088 0.3142451 0.91355085 0.5199382
0000c0 89 32 24 3f 70 7c 59 3f 3c eb d8 3e 50 4c 4d 3d
       0.6413961 0.849555 0.4236697 0.050121605
0000d0 f7 06 29 3f ec 68 e5 3e 2b 8f 1b 3f fe 7d af 3e
       0.6602625 0.44806612 0.6076533 0.34275812
0000e0 40 b4 78 3f 5e 06 b9 3e 64 6d ef 3e 90 34 7c 3f
       0.9715004 0.3613767 0.46763146 0.98517704
0000f0 d3 ab 2f 3f e4 a3 5c 3e be ee 5a 3f e2 79 38 3f
       0.6862156 0.21546894 0.8552054 0.7206098
000100 59 fe 23 3f fd 5a 57 3f 93 7c 71 3f c8 4e 1e 3e
       0.6405998 0.8412321 0.9433071 0.1545974
000110 c9 b5 0b 3f 05 a9 6b 3f 43 9d 4c 3f 68 7c 81 3d
       0.5457426 0.9205478 0.7992746 0.06322557
000120 a0 22 7d 3d c0 94 17 3d 9f db 7c 3f a8 60 9a 3e
       0.0618006 0.037007093 0.98772615 0.30151868
000130 9a a8 29 3f 39 5b 4f 3f b3 51 5f 3f a7 d1 7c 3f
       0.6627289 0.8099857 0.8723404 0.98757404
000140 74 a2 29 3e 35 1f 2a 3f 8c bf 9d 3e 65 ab 32 3f
       0.16565877 0.6645387 0.308102 0.6979278
000150 24 94 1a 3f aa 1d 86 3e 74 b7 ff 3e f0 47 0f 3f
       0.60382295 0.26194507 0.4994465 0.5596914
000160 34 30 78 3e c9 0c 48 3f b0 eb 53 3d 9f 4d 73 3f
       0.24237138 0.7814451 0.05173844 0.95040315
000170 a0 55 34 3f 71 f2 72 3f 04 0c 1a 3e ec 65 2a 3f
       0.70443153 0.94901186 0.15043646 0.6656177
000180 b6 3b 99 3e 24 73 96 3e c3 9c 21 3f 3f 8a 3d 3f
       0.29928368 0.2938472 0.63129824 0.7403907

hidden1_bn.bias f4 [100]
000000 00 00 00 00 00 00 00 00 00 00 00 00 00 00 00 00
       0.0 0.0 0.0 0.0
000010 00 00 00 00 00 00 00 00 00 00 00 00 00 00 00 00
       0.0 0.0 0.0 0.0
000020 00 00 00 00 00 00 00 00 00 00 00 00 00 00 00 00
       0.0 0.0 0.0 0.0
000030 00 00 00 00 00 00 00 00 00 00 00 00 00 00 00 00
       0.0 0.0 0.0 0.0
000040 00 00 00 00 00 00 00 00 00 00 00 00 00 00 00 00
       0.0 0.0 0.0 0.0
000050 00 00 00 00 00 00 00 00 00 00 00 00 00 00 00 00
       0.0 0.0 0.0 0.0
000060 00 00 00 00 00 00 00 00 00 00 00 00 00 00 00 00
       0.0 0.0 0.0 0.0
000070 00 00 00 00 00 00 00 00 00 00 00 00 00 00 00 00
       0.0 0.0 0.0 0.0
000080 00 00 00 00 00 00 00 00 00 00 00 00 00 00 00 00
       0.0 0.0 0.0 0.0
000090 00 00 00 00 00 00 00 00 00 00 00 00 00 00 00 00
       0.0 0.0 0.0 0.0
0000a0 00 00 00 00 00 00 00 00 00 00 00 00 00 00 00 00
       0.0 0.0 0.0 0.0
0000b0 00 00 00 00 00 00 00 00 00 00 00 00 00 00 00 00
       0.0 0.0 0.0 0.0
0000c0 00 00 00 00 00 00 00 00 00 00 00 00 00 00 00 00
       0.0 0.0 0.0 0.0
0000d0 00 00 00 00 00 00 00 00 00 00 00 00 00 00 00 00
       0.0 0.0 0.0 0.0
0000e0 00 00 00 00 00 00 00 00 00 00 00 00 00 00 00 00
       0.0 0.0 0.0 0.0
0000f0 00 00 00 00 00 00 00 00 00 00 00 00 00 00 00 00
       0.0 0.0 0.0 0.0
000100 00 00 00 00 00 00 00 00 00 00 00 00 00 00 00 00
       0.0 0.0 0.0 0.0
000110 00 00 00 00 00 00 00 00 00 00 00 00 00 00 00 00
       0.0 0.0 0.0 0.0
000120 00 00 00 00 00 00 00 00 00 00 00 00 00 00 00 00
       0.0 0.0 0.0 0.0
000130 00 00 00 00 00 00 00 00 00 00 00 00 00 00 00 00
       0.0 0.0 0.0 0.0
000140 00 00 00 00 00 00 00 00 00 00 00 00 00 00 00 00
       0.0 0.0 0.0 0.0
000150 00 00 00 00 00 00 00 00 00 00 00 00 00 00 00 00
       0.0 0.0 0.0 0.0
000160 00 00 00 00 00 00 00 00 00 00 00 00 00 00 00 00
       0.0 0.0 0.0 0.0
000170 00 00 00 00 00 00 00 00 00 00 00 00 00 00 00 00
       0.0 0.0 0.0 0.0
000180 00 00 00 00 00 00 00 00 00 00 00 00 00 00 00 00
       0.0 0.0 0.0 0.0

hidden1_bn.running_mean f4 [100]
000000 00 00 00 00 00 00 00 00 00 00 00 00 00 00 00 00
       0.0 0.0 0.0 0.0
000010 00 00 00 00 00 00 00 00 00 00 00 00 00 00 00 00
       0.0 0.0 0.0 0.0
000020 00 00 00 00 00 00 00 00 00 00 00 00 00 00 00 00
       0.0 0.0 0.0 0.0
000030 00 00 00 00 00 00 00 00 00 00 00 00 00 00 00 00
       0.0 0.0 0.0 0.0
000040 00 00 00 00 00 00 00 00 00 00 00 00 00 00 00 00
       0.0 0.0 0.0 0.0
000050 00 00 00 00 00 00 00 00 00 00 00 00 00 00 00 00
       0.0 0.0 0.0 0.0
000060 00 00 00 00 00 00 00 00 00 00 00 00 00 00 00 00
       0.0 0.0 0.0 0.0
000070 00 00 00 00 00 00 00 00 00 00 00 00 00 00 00 00
       0.0 0.0 0.0 0.0
000080 00 00 00 00 00 00 00 00 00 00 00 00 00 00 00 00
       0.0 0.0 0.0 0.0
000090 00 00 00 00 00 00 00 00 00 00 00 00 00 00 00 00
       0.0 0.0 0.0 0.0
0000a0 00 00 00 00 00 00 00 00 00 00 00 00 00 00 00 00
       0.0 0.0 0.0 0.0
0000b0 00 00 00 00 00 00 00 00 00 00 00 00 00 00 00 00
       0.0 0.0 0.0 0.0
0000c0 00 00 00 00 00 00 00 00 00 00 00 00 00 00 00 00
       0.0 0.0 0.0 0.0
0000d0 00 00 00 00 00 00 00 00 00 00 00 00 00 00 00 00
       0.0 0.0 0.0 0.0
0000e0 00 00 00 00 00 00 00 00 00 00 00 00 00 00 00 00
       0.0 0.0 0.0 0.0
0000f0 00 00 00 00 00 00 00 00 00 00 00 00 00 00 00 00
       0.0 0.0 0.0 0.0
000100 00 00 00 00 00 00 00 00 00 00 00 00 00 00 00 00
       0.0 0.0 0.0 0.0
000110 00 00 00 00 00 00 00 00 00 00 00 00 00 00 00 00
       0.0 0.0 0.0 0.0
000120 00 00 00 00 00 00 00 00 00 00 00 00 00 00 00 00
       0.0 0.0 0.0 0.0
000130 00 00 00 00 00 00 00 00 00 00 00 00 00 00 00 00
       0.0 0.0 0.0 0.0
000140 00 00 00 00 00 00 00 00 00 00 00 00 00 00 00 00
       0.0 0.0 0.0 0.0
000150 00 00 00 00 00 00 00 00 00 00 00 00 00 00 00 00
       0.0 0.0 0.0 0.0
000160 00 00 00 00 00 00 00 00 00 00 00 00 00 00 00 00
       0.0 0.0 0.0 0.0
000170 00 00 00 00 00 00 00 00 00 00 00 00 00 00 00 00
       0.0 0.0 0.0 0.0
000180 00 00 00 00 00 00 00 00 00 00 00 00 00 00 00 00
       0.0 0.0 0.0 0.0

hidden1_bn.running_var f4 [100]
000000 00 00 80 3f 00 00 80 3f 00 00 80 3f 00 00 80 3f
       1.0 1.0 1.0 1.0
000010 00 00 80 3f 00 00 80 3f 00 00 80 3f 00 00 80 3f
       1.0 1.0 1.0 1.0
000020 00 00 80 3f 00 00 80 3f 00 00 80 3f 00 00 80 3f
       1.0 1.0 1.0 1.0
000030 00 00 80 3f 00 00 80 3f 00 00 80 3f 00 00 80 3f
       1.0 1.0 1.0 1.0
000040 00 00 80 3f 00 00 80 3f 00 00 80 3f 00 00 80 3f
       1.0 1.0 1.0 1.0
000050 00 00 80 3f 00 00 80 3f 00 00 80 3f 00 00 80 3f
       1.0 1.0 1.0 1.0
000060 00 00 80 3f 00 00 80 3f 00 00 80 3f 00 00 80 3f
       1.0 1.0 1.0 1.0
000070 00 00 80 3f 00 00 80 3f 00 00 80 3f 00 00 80 3f
       1.0 1.0 1.0 1.0
000080 00 00 80 3f 00 00 80 3f 00 00 80 3f 00 00 80 3f
       1.0 1.0 1.0 1.0
000090 00 00 80 3f 00 00 80 3f 00 00 80 3f 00 00 80 3f
       1.0 1.0 1.0 1.0
0000a0 00 00 80 3f 00 00 80 3f 00 00 80 3f 00 00 80 3f
       1.0 1.0 1.0 1.0
0000b0 00 00 80 3f 00 00 80 3f 00 00 80 3f 00 00 80 3f
       1.0 1.0 1.0 1.0
0000c0 00 00 80 3f 00 00 80 3f 00 00 80 3f 00 00 80 3f
       1.0 1.0 1.0 1.0
0000d0 00 00 80 3f 00 00 80 3f 00 00 80 3f 00 00 80 3f
       1.0 1.0 1.0 1.0
0000e0 00 00 80 3f 00 00 80 3f 00 00 80 3f 00 00 80 3f
       1.0 1.0 1.0 1.0
0000f0 00 00 80 3f 00 00 80 3f 00 00 80 3f 00 00 80 3f
       1.0 1.0 1.0 1.0
000100 00 00 80 3f 00 00 80 3f 00 00 80 3f 00 00 80 3f
       1.0 1.0 1.0 1.0
000110 00 00 80 3f 00 00 80 3f 00 00 80 3f 00 00 80 3f
       1.0 1.0 1.0 1.0
000120 00 00 80 3f 00 00 80 3f 00 00 80 3f 00 00 80 3f
       1.0 1.0 1.0 1.0
000130 00 00 80 3f 00 00 80 3f 00 00 80 3f 00 00 80 3f
       1.0 1.0 1.0 1.0
000140 00 00 80 3f 00 00 80 3f 00 00 80 3f 00 00 80 3f
       1.0 1.0 1.0 1.0
000150 00 00 80 3f 00 00 80 3f 00 00 80 3f 00 00 80 3f
       1.0 1.0 1.0 1.0
000160 00 00 80 3f 00 00 80 3f 00 00 80 3f 00 00 80 3f
       1.0 1.0 1.0 1.0
000170 00 00 80 3f 00 00 80 3f 00 00 80 3f 00 00 80 3f
       1.0 1.0 1.0 1.0
000180 00 00 80 3f 00 00 80 3f 00 00 80 3f 00 00 80 3f
       1.0 1.0 1.0 1.0

hidden2_bn.weight f4 [100]
000000 cf d0 5e 3f bd 97 33 3f 30 97 40 3f 80 19 96 3b
       0.87037367 0.7015341 0.75230694 0.0045806766
000010 84 a8 be 3e 5f aa 6d 3f 7d 1e 12 3f 11 68 38 3f
       0.37237942 0.9283809 0.5707777 0.7203379
000020 90 dc b0 3e 52 f1 a5 3e f0 cf 30 3f 34 f7 b8 3e
       0.34543276 0.32410675 0.6906729 0.361261
000030 25 85 1b 3f 5a 1a 08 3f 05 aa 3f 3f a0 77 3a 3d
       0.6075004 0.5316521 0.74868804 0.04552424
000040 18 96 ca 3e 00 fe 6a 3e 56 77 46 3f b7 60 39 3f
       0.39567637 0.22948456 0.7752584 0.724132
000050 58 0a 07 3e dd 22 7e 3f bd 7b 65 3f 4a f8 83 3e
       0.1318754 0.9927195 0.89641935 0.25775367
000060 36 f3 af 3e 58 f8 24 3f 64 1b 5b 3f 90 61 08 3e
       0.34365243 0.6444144 0.8558867 0.13318467
000070 8c e6 0c 3f 1a 3a 35 3f 90 3c d2 3e d4 15 2c 3e
       0.55039287 0.7079178 0.4106183 0.16805202
000080 4c bf 4e 3e 03 42 46 3f ca 1c 7a 3f c9 9c 73 3f
       0.20190161 0.77444476 0.9770018 0.9516111
000090 b4 27 9e 3e 04 99 6a 3e f8 d3 6a 3f 1e 0e 43 3f
       0.30889666 0.22909933 0.9172969 0.76193416
0000a0 eb b1 43 3f f9 50 23 3f b0 d3 36 3e 90 84 1b 3f
       0.76443356 0.6379543 0.1785419 0.6074915
0000b0 18 7f d3 3e 0c e4 38 3f a0 a6 13 3d 91 81 36 3f
       0.41307902 0.7222297 0.036047578 0.7129145
0000c0 40 f1 64 3c d0 45 32 3d 88 84 c4 3e 20 c2 d1 3e
       0.013973534 0.04352361 0.38382363 0.40968418
0000d0 22 19 f5 3e 7c 49 1b 3e 1e 0b 0c 3f 12 ba 99 3e
       0.47870737 0.15164751 0.54704463 0.30024773
0000e0 8a 3c 74 3f 30 ba c3 3e 9b 79 5b 3f a8 f1 63 3e
       0.95404875 0.38227987 0.8573243 0.22260153
0000f0 c0 f8 5a 3c f6 f9 31 3f e0 e3 c2 3c 78 1c f8 3d
       0.013364971 0.69522035 0.0237903 0.12114805
000100 f2 a0 fc 3e 10 bf 2c 3d 06 21 d2 3e 8a 82 21 3f
       0.49341542 0.0421744 0.4104082 0.6308981
000110 3c d3 04 3e fe 77 46 3f c6 1e 65 3f 9a 6e 65 3f
       0.12971205 0.77526844 0.8950008 0.8962189
000120 9e a5 98 3e 04 67 da 3e 56 34 e2 3e fe e1 ec 3e
       0.29813856 0.4265672 0.44180554 0.46266168
000130 7a f5 ad 3e 1c 56 7d 3f ae b2 60 3f c8 6a d7 3d
       0.33976346 0.9895952 0.87772644 0.10518414
000140 c0 0d 85 3d 60 00 b1 3d 20 45 43 3e a0 5f d9 3e
       0.06496763 0.0864265 0.19069338 0.4245577
000150 c8 3c fa 3e f0 9d fa 3d 08 33 ef 3e fa 47 9e 3e
       0.48874497 0.122371554 0.4671862 0.3091429
000160 fd 1d 34 3f fe 44 e5 3e 9b 8b 39 3f 03 b2 1b 3f
       0.7035826 0.447792 0.72478646 0.608185
000170 00 8d 42 3d 98 45 04 3e 9c c3 25 3f a9 67 14 3f
       0.04749775 0.12917173 0.647516 0.5797067
000180 41 e0 21 3f 7a eb aa 3e e0 76 11 3f 00 c2 4e 3f
       0.6323281 0.3338278 0.56822014 0.8076477

hidden2_bn.bias f4 [100]
000000 00 00 00 00 00 00 00 00 00 00 00 00 00 00 00 00
       0.0 0.0 0.0 0.0
000010 00 00 00 00 00 00 00 00 00 00 00 00 00 00 00 00
       0.0 0.0 0.0 0.0
000020 00 00 00 00 00 00 00 00 00 00 00 00 00 00 00 00
       0.0 0.0 0.0 0.0
000030 00 00 00 00 00 00 00 00 00 00 00 00 00 00 00 00
       0.0 0.0 0.0 0.0
000040 00 00 00 00 00 00 00 00 00 00 00 00 00 00 00 00
       0.0 0.0 0.0 0.0
000050 00 00 00 00 00 00 00 00 00 00 00 00 00 00 00 00
       0.0 0.0 0.0 0.0
000060 00 00 00 00 00 00 00 00 00 00 00 00 00 00 00 00
       0.0 0.0 0.0 0.0
000070 00 00 00 00 00 00 00 00 00 00 00 00 00 00 00 00
       0.0 0.0 0.0 0.0
000080 00 00 00 00 00 00 00 00 00 00 00 00 00 00 00 00
       0.0 0.0 0.0 0.0
000090 00 00 00 00 00 00 00 00 00 00 00 00 00 00 00 00
       0.0 0.0 0.0 0.0
0000a0 00 00 00 00 00 00 00 00 00 00 00 00 00 00 00 00
       0.0 0.0 0.0 0.0
0000b0 00 00 00 00 00 00 00 00 00 00 00 00 00 00 00 00
       0.0 0.0 0.0 0.0
0000c0 00 00 00 00 00 00 00 00 00 00 00 00 00 00 00 00
       0.0 0.0 0.0 0.0
0000d0 00 00 00 00 00 00 00 00 00 00 00 00 00 00 00 00
       0.0 0.0 0.0 0.0
0000e0 00 00 00 00 00 00 00 00 00 00 00 00 00 00 00 00
       0.0 0.0 0.0 0.0
0000f0 00 00 00 00 00 00 00 00 00 00 00 00 00 00 00 00
       0.0 0.0 0.0 0.0
000100 00 00 00 00 00 00 00 00 00 00 00 00 00 00 00 00
       0.0 0.0 0.0 0.0
000110 00 00 00 00 00 00 00 00 00 00 00 00 00 00 00 00
       0.0 0.0 0.0 0.0
000120 00 00 00 00 00 00 00 00 00 00 00 00 00 00 00 00
       0.0 0.0 0.0 0.0
000130 00 00 00 00 00 00 00 00 00 00 00 00 00 00 00 00
       0.0 0.0 0.0 0.0
000140 00 00 00 00 00 00 00 00 00 00 00 00 00 00 00 00
       0.0 0.0 0.0 0.0
000150 00 00 00 00 00 00 00 00 00 00 00 00 00 00 00 00
       0.0 0.0 0.0 0.0
000160 00 00 00 00 00 00 00 00 00 00 00 00 00 00 00 00
       0.0 0.0 0.0 0.0
000170 00 00 00 00 00 00 00 00 00 00 00 00 00 00 00 00
       0.0 0.0 0.0 0.0
000180 00 00 00 00 00 00 00 00 00 00 00 00 00 00 00 00
       0.0 0.0 0.0 0.0
